…
  classifier_free_scale: 1.0
  sample_times: 1
  timestep_respacing:
  - 25
  sample_method: dpm_solver
  clip_denoised: true
  save_cropped_images: true
  save_images_with_bboxs: true
  save_sequence_of_obj_imgs: true
  adaptive_step_size: false
  rtol: 0.05
  fast_version: true
  eps: 0.0001
local_rank: 0
config_file: ./configs/COCO-stuff_256x256/LayoutDiffusion_large.yaml

creating model...
LayoutDiffusionUNetModel(
  (layout_encoder): LayoutTransformerEncoder(
    (transform): Transformer(
      (resblocks): ModuleList(
        (0): ResidualAttentionBlock(
          (attn): MultiheadAttention(
            (c_qkv): Linear(in_features=256, out_features=768, bias=True)
            (c_proj): Linear(in_features=256, out_features=256, bias=True)
            (attention): QKVMultiheadAttention()
          )
          (ln_1): LayerNorm((256,), eps=1e-05, elementwise_affine=True)
          (mlp): MLP(
            (c_fc): Linear(in_features=256, out_features=1024, bias=True)
            (c_proj): Linear(in_features=1024, out_features=256, bias=True)
            (gelu): GELU()
          )
          (ln_2): LayerNorm((256,), eps=1e-05, elementwise_affine=True)
        )
        (1): ResidualAttentionBlock(
          (attn): MultiheadAttention(
            (c_qkv): Linear(in_features=256, out_features=768, bias=True)
            (c_proj): Linear(in_features=256, out_features=256, bias=True)
            (attention): QKVMultiheadAttention()
          )
          (ln_1): LayerNorm((256,), eps=1e-05, elementwise_affine=True)
          (mlp): MLP(
            (c_fc): Linear(in_features=256, out_features=1024, bias=True)
            (c_proj): Linear(in_features=1024, out_features=256, bias=True)
            (gelu): GELU()
          )
          (ln_2): LayerNorm((256,), eps=1e-05, elementwise_affine=True)
        )
        (2): ResidualAttentionBlock(
          (attn): MultiheadAttention(
            (c_qkv): Linear(in_features=256, out_features=768, bias=True)
            (c_proj): Linear(in_features=256, out_features=256, bias=True)
            (attention): QKVMultiheadAttention()
          )
          (ln_1): LayerNorm((256,), eps=1e-05, elementwise_affine=True)
          (mlp): MLP(
            (c_fc): Linear(in_features=256, out_features=1024, bias=True)
            (c_proj): Linear(in_features=1024, out_features=256, bias=True)
            (gelu): GELU()
          )
          (ln_2): LayerNorm((256,), eps=1e-05, elementwise_affine=True)
        )
        (3): ResidualAttentionBlock(
          (attn): MultiheadAttention(
            (c_qkv): Linear(in_features=256, out_features=768, bias=True)
            (c_proj): Linear(in_features=256, out_features=256, bias=True)
            (attention): QKVMultiheadAttention()
          )
          (ln_1): LayerNorm((256,), eps=1e-05, elementwise_affine=True)
          (mlp): MLP(
            (c_fc): Linear(in_features=256, out_features=1024, bias=True)
            (c_proj): Linear(in_features=1024, out_features=256, bias=True)
            (gelu): GELU()
          )
          (ln_2): LayerNorm((256,), eps=1e-05, elementwise_affine=True)
        )
        (4): ResidualAttentionBlock(
          (attn): MultiheadAttention(
            (c_qkv): Linear(in_features=256, out_features=768, bias=True)
            (c_proj): Linear(in_features=256, out_features=256, bias=True)
            (attention): QKVMultiheadAttention()
          )
          (ln_1): LayerNorm((256,), eps=1e-05, elementwise_affine=True)
          (mlp): MLP(
            (c_fc): Linear(in_features=256, out_features=1024, bias=True)
            (c_proj): Linear(in_features=1024, out_features=256, bias=True)
            (gelu): GELU()
          )
          (ln_2): LayerNorm((256,), eps=1e-05, elementwise_affine=True)
        )
        (5): ResidualAttentionBlock(
          (attn): MultiheadAttention(
            (c_qkv): Linear(in_features=256, out_features=768, bias=True)
            (c_proj): Linear(in_features=256, out_features=256, bias=True)
            (attention): QKVMultiheadAttention()
          )
          (ln_1): LayerNorm((256,), eps=1e-05, elementwise_affine=True)
          (mlp): MLP(
            (c_fc): Linear(in_features=256, out_features=1024, bias=True)
            (c_proj): Linear(in_features=1024, out_features=256, bias=True)
            (gelu): GELU()
          )
          (ln_2): LayerNorm((256,), eps=1e-05, elementwise_affine=True)
        )
      )
    )
    (transformer_proj): Linear(in_features=256, out_features=1024, bias=True)
    (obj_class_embedding): Embedding(185, 256)
    (obj_bbox_embedding): Linear(in_features=4, out_features=256, bias=True)
    (final_ln): LayerNorm((256,), eps=1e-05, elementwise_affine=True)
  )
  (time_embed): Sequential(
    (0): Linear(in_features=256, out_features=1024, bias=True)
    (1): SiLU()
    (2): Linear(in_features=1024, out_features=1024, bias=True)
  )
  (input_blocks): ModuleList(
    (0): TimestepEmbedSequential(
      (0): Conv2d(3, 256, kernel_size=(3, 3), stride=(1, 1), padding=(1, 1))
    )
    (1): TimestepEmbedSequential(
      (0): ResBlock(
        (in_layers): Sequential(
          (0): GroupNorm32(32, 256, eps=1e-05, affine=True)
          (1): SiLU()
          (2): Conv2d(256, 256, kernel_size=(3, 3), stride=(1, 1), padding=(1, 1))
        )
        (h_upd): Identity()
        (x_upd): Identity()
        (emb_layers): Sequential(
          (0): SiLU()
          (1): Linear(in_features=1024, out_features=512, bias=True)
        )
        (out_layers): Sequential(
          (0): GroupNorm32(32, 256, eps=1e-05, affine=True)
          (1): SiLU()
          (2): Dropout(p=0.0, inplace=False)
          (3): Conv2d(256, 256, kernel_size=(3, 3), stride=(1, 1), padding=(1, 1))
        )
        (skip_connection): Identity()
      )
    )
    (2): TimestepEmbedSequential(
      (0): ResBlock(
        (in_layers): Sequential(
          (0): GroupNorm32(32, 256, eps=1e-05, affine=True)
          (1): SiLU()
          (2): Conv2d(256, 256, kernel_size=(3, 3), stride=(1, 1), padding=(1, 1))
        )
        (h_upd): Identity()
        (x_upd): Identity()
        (emb_layers): Sequential(
          (0): SiLU()
          (1): Linear(in_features=1024, out_features=512, bias=True)
        )
        (out_layers): Sequential(
          (0): GroupNorm32(32, 256, eps=1e-05, affine=True)
          (1): SiLU()
          (2): Dropout(p=0.0, inplace=False)
          (3): Conv2d(256, 256, kernel_size=(3, 3), stride=(1, 1), padding=(1, 1))
        )
        (skip_connection): Identity()
      )
    )
    (3): TimestepEmbedSequential(
      (0): ResBlock(
        (in_layers): Sequential(
          (0): GroupNorm32(32, 256, eps=1e-05, affine=True)
          (1): SiLU()
          (2): Conv2d(256, 256, kernel_size=(3, 3), stride=(1, 1), padding=(1, 1))
        )
        (h_upd): Downsample(
          (op): AvgPool2d(kernel_size=2, stride=2, padding=0)
        )
        (x_upd): Downsample(
          (op): AvgPool2d(kernel_size=2, stride=2, padding=0)
        )
        (emb_layers): Sequential(
          (0): SiLU()
          (1): Linear(in_features=1024, out_features=512, bias=True)
        )
        (out_layers): Sequential(
          (0): GroupNorm32(32, 256, eps=1e-05, affine=True)
          (1): SiLU()
          (2): Dropout(p=0.0, inplace=False)
          (3): Conv2d(256, 256, kernel_size=(3, 3), stride=(1, 1), padding=(1, 1))
        )
        (skip_connection): Identity()
      )
    )
    (4): TimestepEmbedSequential(
      (0): ResBlock(
        (in_layers): Sequential(
          (0): GroupNorm32(32, 256, eps=1e-05, affine=True)
          (1): SiLU()
          (2): Conv2d(256, 256, kernel_size=(3, 3), stride=(1, 1), padding=(1, 1))
        )
        (h_upd): Identity()
        (x_upd): Identity()
        (emb_layers): Sequential(
          (0): SiLU()
          (1): Linear(in_features=1024, out_features=512, bias=True)
        )
        (out_layers): Sequential(
          (0): GroupNorm32(32, 256, eps=1e-05, affine=True)
          (1): SiLU()
          (2): Dropout(p=0.0, inplace=False)
          (3): Conv2d(256, 256, kernel_size=(3, 3), stride=(1, 1), padding=(1, 1))
        )
        (skip_connection): Identity()
      )
    )
    (5): TimestepEmbedSequential(
      (0): ResBlock(
        (in_layers): Sequential(
          (0): GroupNorm32(32, 256, eps=1e-05, affine=True)
          (1): SiLU()
          (2): Conv2d(256, 256, kernel_size=(3, 3), stride=(1, 1), padding=(1, 1))
        )
        (h_upd): Identity()
        (x_upd): Identity()
        (emb_layers): Sequential(
          (0): SiLU()
          (1): Linear(in_features=1024, out_features=512, bias=True)
        )
        (out_layers): Sequential(
          (0): GroupNorm32(32, 256, eps=1e-05, affine=True)
          (1): SiLU()
          (2): Dropout(p=0.0, inplace=False)
          (3): Conv2d(256, 256, kernel_size=(3, 3), stride=(1, 1), padding=(1, 1))
        )
        (skip_connection): Identity()
      )
    )
    (6): TimestepEmbedSequential(
      (0): ResBlock(
        (in_layers): Sequential(
          (0): GroupNorm32(32, 256, eps=1e-05, affine=True)
          (1): SiLU()
          (2): Conv2d(256, 256, kernel_size=(3, 3), stride=(1, 1), padding=(1, 1))
        )
        (h_upd): Downsample(
          (op): AvgPool2d(kernel_size=2, stride=2, padding=0)
        )
        (x_upd): Downsample(
          (op): AvgPool2d(kernel_size=2, stride=2, padding=0)
        )
        (emb_layers): Sequential(
          (0): SiLU()
          (1): Linear(in_features=1024, out_features=512, bias=True)
        )
        (out_layers): Sequential(
          (0): GroupNorm32(32, 256, eps=1e-05, affine=True)
          (1): SiLU()
          (2): Dropout(p=0.0, inplace=False)
          (3): Conv2d(256, 256, kernel_size=(3, 3), stride=(1, 1), padding=(1, 1))
        )
        (skip_connection): Identity()
      )
    )
    (7): TimestepEmbedSequential(
      (0): ResBlock(
        (in_layers): Sequential(
          (0): GroupNorm32(32, 256, eps=1e-05, affine=True)
          (1): SiLU()
          (2): Conv2d(256, 512, kernel_size=(3, 3), stride=(1, 1), padding=(1, 1))
        )
        (h_upd): Identity()
        (x_upd): Identity()
        (emb_layers): Sequential(
          (0): SiLU()
          (1): Linear(in_features=1024, out_features=1024, bias=True)
        )
        (out_layers): Sequential(
          (0): GroupNorm32(32, 512, eps=1e-05, affine=True)
          (1): SiLU()
          (2): Dropout(p=0.0, inplace=False)
          (3): Conv2d(512, 512, kernel_size=(3, 3), stride=(1, 1), padding=(1, 1))
        )
        (skip_connection): Conv2d(256, 512, kernel_size=(1, 1), stride=(1, 1))
      )
    )
    (8): TimestepEmbedSequential(
      (0): ResBlock(
        (in_layers): Sequential(
          (0): GroupNorm32(32, 512, eps=1e-05, affine=True)
          (1): SiLU()
          (2): Conv2d(512, 512, kernel_size=(3, 3), stride=(1, 1), padding=(1, 1))
        )
        (h_upd): Identity()
        (x_upd): Identity()
        (emb_layers): Sequential(
          (0): SiLU()
          (1): Linear(in_features=1024, out_features=1024, bias=True)
        )
        (out_layers): Sequential(
          (0): GroupNorm32(32, 512, eps=1e-05, affine=True)
          (1): SiLU()
          (2): Dropout(p=0.0, inplace=False)
          (3): Conv2d(512, 512, kernel_size=(3, 3), stride=(1, 1), padding=(1, 1))
        )
        (skip_connection): Identity()
      )
    )
    (9): TimestepEmbedSequential(
      (0): ResBlock(
        (in_layers): Sequential(
          (0): GroupNorm32(32, 512, eps=1e-05, affine=True)
          (1): SiLU()
          (2): Conv2d(512, 512, kernel_size=(3, 3), stride=(1, 1), padding=(1, 1))
        )
        (h_upd): Downsample(
          (op): AvgPool2d(kernel_size=2, stride=2, padding=0)
        )
        (x_upd): Downsample(
          (op): AvgPool2d(kernel_size=2, stride=2, padding=0)
        )
        (emb_layers): Sequential(
          (0): SiLU()
          (1): Linear(in_features=1024, out_features=1024, bias=True)
        )
        (out_layers): Sequential(
          (0): GroupNorm32(32, 512, eps=1e-05, affine=True)
          (1): SiLU()
          (2): Dropout(p=0.0, inplace=False)
          (3): Conv2d(512, 512, kernel_size=(3, 3), stride=(1, 1), padding=(1, 1))
        )
        (skip_connection): Identity()
      )
    )
    (10): TimestepEmbedSequential(
      (0): ResBlock(
        (in_layers): Sequential(
          (0): GroupNorm32(32, 512, eps=1e-05, affine=True)
          (1): SiLU()
          (2): Conv2d(512, 512, kernel_size=(3, 3), stride=(1, 1), padding=(1, 1))
        )
        (h_upd): Identity()
        (x_upd): Identity()
        (emb_layers): Sequential(
          (0): SiLU()
          (1): Linear(in_features=1024, out_features=1024, bias=True)
        )
        (out_layers): Sequential(
          (0): GroupNorm32(32, 512, eps=1e-05, affine=True)
          (1): SiLU()
          (2): Dropout(p=0.0, inplace=False)
          (3): Conv2d(512, 512, kernel_size=(3, 3), stride=(1, 1), padding=(1, 1))
        )
        (skip_connection): Identity()
      )
      (1): ObjectAwareCrossAttention(
        (qkv_projector): Conv1d(512, 1536, kernel_size=(1,), stride=(1,))
        (norm_for_qkv): GroupNorm32(32, 512, eps=1e-05, affine=True)
        (layout_content_embedding_projector): Conv1d(256, 1024, kernel_size=(1,), stride=(1,))
        (layout_position_embedding_projector): Conv1d(256, 512, kernel_size=(1,), stride=(1,))
        (norm_for_obj_class_embedding): GroupNorm32(32, 256, eps=1e-05, affine=True)
        (norm_for_layout_positional_embedding): GroupNorm32(32, 512, eps=1e-05, affine=True)
        (norm_for_image_patch_positional_embedding): GroupNorm32(32, 512, eps=1e-05, affine=True)
        (proj_out): Conv1d(512, 512, kernel_size=(1,), stride=(1,))
      )
    )
    (11): TimestepEmbedSequential(
      (0): ResBlock(
        (in_layers): Sequential(
          (0): GroupNorm32(32, 512, eps=1e-05, affine=True)
          (1): SiLU()
          (2): Conv2d(512, 512, kernel_size=(3, 3), stride=(1, 1), padding=(1, 1))
        )
        (h_upd): Identity()
        (x_upd): Identity()
        (emb_layers): Sequential(
          (0): SiLU()
          (1): Linear(in_features=1024, out_features=1024, bias=True)
        )
        (out_layers): Sequential(
          (0): GroupNorm32(32, 512, eps=1e-05, affine=True)
          (1): SiLU()
          (2): Dropout(p=0.0, inplace=False)
          (3): Conv2d(512, 512, kernel_size=(3, 3), stride=(1, 1), padding=(1, 1))
        )
        (skip_connection): Identity()
      )
      (1): ObjectAwareCrossAttention(
        (qkv_projector): Conv1d(512, 1536, kernel_size=(1,), stride=(1,))
        (norm_for_qkv): GroupNorm32(32, 512, eps=1e-05, affine=True)
        (layout_content_embedding_projector): Conv1d(256, 1024, kernel_size=(1,), stride=(1,))
        (layout_position_embedding_projector): Conv1d(256, 512, kernel_size=(1,), stride=(1,))
        (norm_for_obj_class_embedding): GroupNorm32(32, 256, eps=1e-05, affine=True)
        (norm_for_layout_positional_embedding): GroupNorm32(32, 512, eps=1e-05, affine=True)
        (norm_for_image_patch_positional_embedding): GroupNorm32(32, 512, eps=1e-05, affine=True)
        (proj_out): Conv1d(512, 512, kernel_size=(1,), stride=(1,))
      )
    )
    (12): TimestepEmbedSequential(
      (0): ResBlock(
        (in_layers): Sequential(
          (0): GroupNorm32(32, 512, eps=1e-05, affine=True)
          (1): SiLU()
          (2): Conv2d(512, 512, kernel_size=(3, 3), stride=(1, 1), padding=(1, 1))
        )
        (h_upd): Downsample(
          (op): AvgPool2d(kernel_size=2, stride=2, padding=0)
        )
        (x_upd): Downsample(
          (op): AvgPool2d(kernel_size=2, stride=2, padding=0)
        )
        (emb_layers): Sequential(
          (0): SiLU()
          (1): Linear(in_features=1024, out_features=1024, bias=True)
        )
        (out_layers): Sequential(
          (0): GroupNorm32(32, 512, eps=1e-05, affine=True)
          (1): SiLU()
          (2): Dropout(p=0.0, inplace=False)
          (3): Conv2d(512, 512, kernel_size=(3, 3), stride=(1, 1), padding=(1, 1))
        )
        (skip_connection): Identity()
      )
    )
    (13): TimestepEmbedSequential(
      (0): ResBlock(
        (in_layers): Sequential(
          (0): GroupNorm32(32, 512, eps=1e-05, affine=True)
          (1): SiLU()
          (2): Conv2d(512, 1024, kernel_size=(3, 3), stride=(1, 1), padding=(1, 1))
        )
        (h_upd): Identity()
        (x_upd): Identity()
        (emb_layers): Sequential(
          (0): SiLU()
          (1): Linear(in_features=1024, out_features=2048, bias=True)
        )
        (out_layers): Sequential(
          (0): GroupNorm32(32, 1024, eps=1e-05, affine=True)
          (1): SiLU()
          (2): Dropout(p=0.0, inplace=False)
          (3): Conv2d(1024, 1024, kernel_size=(3, 3), stride=(1, 1), padding=(1, 1))
        )
        (skip_connection): Conv2d(512, 1024, kernel_size=(1, 1), stride=(1, 1))
      )
      (1): ObjectAwareCrossAttention(
        (qkv_projector): Conv1d(1024, 3072, kernel_size=(1,), stride=(1,))
        (norm_for_qkv): GroupNorm32(32, 1024, eps=1e-05, affine=True)
        (layout_content_embedding_projector): Conv1d(256, 2048, kernel_size=(1,), stride=(1,))
        (layout_position_embedding_projector): Conv1d(256, 1024, kernel_size=(1,), stride=(1,))
        (norm_for_obj_class_embedding): GroupNorm32(32, 256, eps=1e-05, affine=True)
        (norm_for_layout_positional_embedding): GroupNorm32(32, 1024, eps=1e-05, affine=True)
        (norm_for_image_patch_positional_embedding): GroupNorm32(32, 1024, eps=1e-05, affine=True)
        (proj_out): Conv1d(1024, 1024, kernel_size=(1,), stride=(1,))
      )
    )
    (14): TimestepEmbedSequential(
      (0): ResBlock(
        (in_layers): Sequential(
          (0): GroupNorm32(32, 1024, eps=1e-05, affine=True)
          (1): SiLU()
          (2): Conv2d(1024, 1024, kernel_size=(3, 3), stride=(1, 1), padding=(1, 1))
        )
        (h_upd): Identity()
        (x_upd): Identity()
        (emb_layers): Sequential(
          (0): SiLU()
          (1): Linear(in_features=1024, out_features=2048, bias=True)
        )
        (out_layers): Sequential(
          (0): GroupNorm32(32, 1024, eps=1e-05, affine=True)
          (1): SiLU()
          (2): Dropout(p=0.0, inplace=False)
          (3): Conv2d(1024, 1024, kernel_size=(3, 3), stride=(1, 1), padding=(1, 1))
        )
        (skip_connection): Identity()
      )
      (1): ObjectAwareCrossAttention(
        (qkv_projector): Conv1d(1024, 3072, kernel_size=(1,), stride=(1,))
        (norm_for_qkv): GroupNorm32(32, 1024, eps=1e-05, affine=True)
        (layout_content_embedding_projector): Conv1d(256, 2048, kernel_size=(1,), stride=(1,))
        (layout_position_embedding_projector): Conv1d(256, 1024, kernel_size=(1,), stride=(1,))
        (norm_for_obj_class_embedding): GroupNorm32(32, 256, eps=1e-05, affine=True)
        (norm_for_layout_positional_embedding): GroupNorm32(32, 1024, eps=1e-05, affine=True)
        (norm_for_image_patch_positional_embedding): GroupNorm32(32, 1024, eps=1e-05, affine=True)
        (proj_out): Conv1d(1024, 1024, kernel_size=(1,), stride=(1,))
      )
    )
    (15): TimestepEmbedSequential(
      (0): ResBlock(
        (in_layers): Sequential(
          (0): GroupNorm32(32, 1024, eps=1e-05, affine=True)
          (1): SiLU()
          (2): Conv2d(1024, 1024, kernel_size=(3, 3), stride=(1, 1), padding=(1, 1))
        )
        (h_upd): Downsample(
          (op): AvgPool2d(kernel_size=2, stride=2, padding=0)
        )
        (x_upd): Downsample(
          (op): AvgPool2d(kernel_size=2, stride=2, padding=0)
        )
        (emb_layers): Sequential(
          (0): SiLU()
          (1): Linear(in_features=1024, out_features=2048, bias=True)
        )
        (out_layers): Sequential(
          (0): GroupNorm32(32, 1024, eps=1e-05, affine=True)
          (1): SiLU()
          (2): Dropout(p=0.0, inplace=False)
          (3): Conv2d(1024, 1024, kernel_size=(3, 3), stride=(1, 1), padding=(1, 1))
        )
        (skip_connection): Identity()
      )
    )
    (16): TimestepEmbedSequential(
      (0): ResBlock(
        (in_layers): Sequential(
          (0): GroupNorm32(32, 1024, eps=1e-05, affine=True)
          (1): SiLU()
          (2): Conv2d(1024, 1024, kernel_size=(3, 3), stride=(1, 1), padding=(1, 1))
        )
        (h_upd): Identity()
        (x_upd): Identity()
        (emb_layers): Sequential(
          (0): SiLU()
          (1): Linear(in_features=1024, out_features=2048, bias=True)
        )
        (out_layers): Sequential(
          (0): GroupNorm32(32, 1024, eps=1e-05, affine=True)
          (1): SiLU()
          (2): Dropout(p=0.0, inplace=False)
          (3): Conv2d(1024, 1024, kernel_size=(3, 3), stride=(1, 1), padding=(1, 1))
        )
        (skip_connection): Identity()
      )
      (1): ObjectAwareCrossAttention(
        (qkv_projector): Conv1d(1024, 3072, kernel_size=(1,), stride=(1,))
        (norm_for_qkv): GroupNorm32(32, 1024, eps=1e-05, affine=True)
        (layout_content_embedding_projector): Conv1d(256, 2048, kernel_size=(1,), stride=(1,))
        (layout_position_embedding_projector): Conv1d(256, 1024, kernel_size=(1,), stride=(1,))
        (norm_for_obj_class_embedding): GroupNorm32(32, 256, eps=1e-05, affine=True)
        (norm_for_layout_positional_embedding): GroupNorm32(32, 1024, eps=1e-05, affine=True)
        (norm_for_image_patch_positional_embedding): GroupNorm32(32, 1024, eps=1e-05, affine=True)
        (proj_out): Conv1d(1024, 1024, kernel_size=(1,), stride=(1,))
      )
    )
    (17): TimestepEmbedSequential(
      (0): ResBlock(
        (in_layers): Sequential(
          (0): GroupNorm32(32, 1024, eps=1e-05, affine=True)
          (1): SiLU()
          (2): Conv2d(1024, 1024, kernel_size=(3, 3), stride=(1, 1), padding=(1, 1))
        )
        (h_upd): Identity()
        (x_upd): Identity()
        (emb_layers): Sequential(
          (0): SiLU()
          (1): Linear(in_features=1024, out_features=2048, bias=True)
        )
        (out_layers): Sequential(
          (0): GroupNorm32(32, 1024, eps=1e-05, affine=True)
          (1): SiLU()
          (2): Dropout(p=0.0, inplace=False)
          (3): Conv2d(1024, 1024, kernel_size=(3, 3), stride=(1, 1), padding=(1, 1))
        )
        (skip_connection): Identity()
      )
      (1): ObjectAwareCrossAttention(
        (qkv_projector): Conv1d(1024, 3072, kernel_size=(1,), stride=(1,))
        (norm_for_qkv): GroupNorm32(32, 1024, eps=1e-05, affine=True)
        (layout_content_embedding_projector): Conv1d(256, 2048, kernel_size=(1,), stride=(1,))
        (layout_position_embedding_projector): Conv1d(256, 1024, kernel_size=(1,), stride=(1,))
        (norm_for_obj_class_embedding): GroupNorm32(32, 256, eps=1e-05, affine=True)
        (norm_for_layout_positional_embedding): GroupNorm32(32, 1024, eps=1e-05, affine=True)
        (norm_for_image_patch_positional_embedding): GroupNorm32(32, 1024, eps=1e-05, affine=True)
        (proj_out): Conv1d(1024, 1024, kernel_size=(1,), stride=(1,))
      )
    )
  )
  (middle_block): TimestepEmbedSequential(
    (0): ResBlock(
      (in_layers): Sequential(
        (0): GroupNorm32(32, 1024, eps=1e-05, affine=True)
        (1): SiLU()
        (2): Conv2d(1024, 1024, kernel_size=(3, 3), stride=(1, 1), padding=(1, 1))
      )
      (h_upd): Identity()
      (x_upd): Identity()
      (emb_layers): Sequential(
        (0): SiLU()
        (1): Linear(in_features=1024, out_features=2048, bias=True)
      )
      (out_layers): Sequential(
        (0): GroupNorm32(32, 1024, eps=1e-05, affine=True)
        (1): SiLU()
        (2): Dropout(p=0.0, inplace=False)
        (3): Conv2d(1024, 1024, kernel_size=(3, 3), stride=(1, 1), padding=(1, 1))
      )
      (skip_connection): Identity()
    )
    (1): ObjectAwareCrossAttention(
      (qkv_projector): Conv1d(1024, 3072, kernel_size=(1,), stride=(1,))
      (norm_for_qkv): GroupNorm32(32, 1024, eps=1e-05, affine=True)
      (layout_content_embedding_projector): Conv1d(256, 2048, kernel_size=(1,), stride=(1,))
      (layout_position_embedding_projector): Conv1d(256, 1024, kernel_size=(1,), stride=(1,))
      (norm_for_obj_class_embedding): GroupNorm32(32, 256, eps=1e-05, affine=True)
      (norm_for_layout_positional_embedding): GroupNorm32(32, 1024, eps=1e-05, affine=True)
      (norm_for_image_patch_positional_embedding): GroupNorm32(32, 1024, eps=1e-05, affine=True)
      (proj_out): Conv1d(1024, 1024, kernel_size=(1,), stride=(1,))
    )
    (2): ResBlock(
      (in_layers): Sequential(
        (0): GroupNorm32(32, 1024, eps=1e-05, affine=True)
        (1): SiLU()
        (2): Conv2d(1024, 1024, kernel_size=(3, 3), stride=(1, 1), padding=(1, 1))
      )
      (h_upd): Identity()
      (x_upd): Identity()
      (emb_layers): Sequential(
        (0): SiLU()
        (1): Linear(in_features=1024, out_features=2048, bias=True)
      )
      (out_layers): Sequential(
        (0): GroupNorm32(32, 1024, eps=1e-05, affine=True)
        (1): SiLU()
        (2): Dropout(p=0.0, inplace=False)
        (3): Conv2d(1024, 1024, kernel_size=(3, 3), stride=(1, 1), padding=(1, 1))
      )
      (skip_connection): Identity()
    )
  )
  (output_blocks): ModuleList(
    (0): TimestepEmbedSequential(
      (0): ResBlock(
        (in_layers): Sequential(
          (0): GroupNorm32(32, 2048, eps=1e-05, affine=True)
          (1): SiLU()
          (2): Conv2d(2048, 1024, kernel_size=(3, 3), stride=(1, 1), padding=(1, 1))
        )
        (h_upd): Identity()
        (x_upd): Identity()
        (emb_layers): Sequential(
          (0): SiLU()
          (1): Linear(in_features=1024, out_features=2048, bias=True)
        )
        (out_layers): Sequential(
          (0): GroupNorm32(32, 1024, eps=1e-05, affine=True)
          (1): SiLU()
          (2): Dropout(p=0.0, inplace=False)
          (3): Conv2d(1024, 1024, kernel_size=(3, 3), stride=(1, 1), padding=(1, 1))
        )
        (skip_connection): Conv2d(2048, 1024, kernel_size=(1, 1), stride=(1, 1))
      )
      (1): ObjectAwareCrossAttention(
        (qkv_projector): Conv1d(1024, 3072, kernel_size=(1,), stride=(1,))
        (norm_for_qkv): GroupNorm32(32, 1024, eps=1e-05, affine=True)
        (layout_content_embedding_projector): Conv1d(256, 2048, kernel_size=(1,), stride=(1,))
        (layout_position_embedding_projector): Conv1d(256, 1024, kernel_size=(1,), stride=(1,))
        (norm_for_obj_class_embedding): GroupNorm32(32, 256, eps=1e-05, affine=True)
        (norm_for_layout_positional_embedding): GroupNorm32(32, 1024, eps=1e-05, affine=True)
        (norm_for_image_patch_positional_embedding): GroupNorm32(32, 1024, eps=1e-05, affine=True)
        (proj_out): Conv1d(1024, 1024, kernel_size=(1,), stride=(1,))
      )
    )
    (1): TimestepEmbedSequential(
      (0): ResBlock(
        (in_layers): Sequential(
          (0): GroupNorm32(32, 2048, eps=1e-05, affine=True)
          (1): SiLU()
          (2): Conv2d(2048, 1024, kernel_size=(3, 3), stride=(1, 1), padding=(1, 1))
        )
        (h_upd): Identity()
        (x_upd): Identity()
        (emb_layers): Sequential(
          (0): SiLU()
          (1): Linear(in_features=1024, out_features=2048, bias=True)
        )
        (out_layers): Sequential(
          (0): GroupNorm32(32, 1024, eps=1e-05, affine=True)
          (1): SiLU()
          (2): Dropout(p=0.0, inplace=False)
          (3): Conv2d(1024, 1024, kernel_size=(3, 3), stride=(1, 1), padding=(1, 1))
        )
        (skip_connection): Conv2d(2048, 1024, kernel_size=(1, 1), stride=(1, 1))
      )
      (1): ObjectAwareCrossAttention(
        (qkv_projector): Conv1d(1024, 3072, kernel_size=(1,), stride=(1,))
        (norm_for_qkv): GroupNorm32(32, 1024, eps=1e-05, affine=True)
        (layout_content_embedding_projector): Conv1d(256, 2048, kernel_size=(1,), stride=(1,))
        (layout_position_embedding_projector): Conv1d(256, 1024, kernel_size=(1,), stride=(1,))
        (norm_for_obj_class_embedding): GroupNorm32(32, 256, eps=1e-05, affine=True)
        (norm_for_layout_positional_embedding): GroupNorm32(32, 1024, eps=1e-05, affine=True)
        (norm_for_image_patch_positional_embedding): GroupNorm32(32, 1024, eps=1e-05, affine=True)
        (proj_out): Conv1d(1024, 1024, kernel_size=(1,), stride=(1,))
      )
    )
    (2): TimestepEmbedSequential(
      (0): ResBlock(
        (in_layers): Sequential(
          (0): GroupNorm32(32, 2048, eps=1e-05, affine=True)
          (1): SiLU()
          (2): Conv2d(2048, 1024, kernel_size=(3, 3), stride=(1, 1), padding=(1, 1))
        )
        (h_upd): Identity()
        (x_upd): Identity()
        (emb_layers): Sequential(
          (0): SiLU()
          (1): Linear(in_features=1024, out_features=2048, bias=True)
        )
        (out_layers): Sequential(
          (0): GroupNorm32(32, 1024, eps=1e-05, affine=True)
          (1): SiLU()
          (2): Dropout(p=0.0, inplace=False)
          (3): Conv2d(1024, 1024, kernel_size=(3, 3), stride=(1, 1), padding=(1, 1))
        )
        (skip_connection): Conv2d(2048, 1024, kernel_size=(1, 1), stride=(1, 1))
      )
      (1): ObjectAwareCrossAttention(
        (qkv_projector): Conv1d(1024, 3072, kernel_size=(1,), stride=(1,))
        (norm_for_qkv): GroupNorm32(32, 1024, eps=1e-05, affine=True)
        (layout_content_embedding_projector): Conv1d(256, 2048, kernel_size=(1,), stride=(1,))
        (layout_position_embedding_projector): Conv1d(256, 1024, kernel_size=(1,), stride=(1,))
        (norm_for_obj_class_embedding): GroupNorm32(32, 256, eps=1e-05, affine=True)
        (norm_for_layout_positional_embedding): GroupNorm32(32, 1024, eps=1e-05, affine=True)
        (norm_for_image_patch_positional_embedding): GroupNorm32(32, 1024, eps=1e-05, affine=True)
        (proj_out): Conv1d(1024, 1024, kernel_size=(1,), stride=(1,))
      )
      (2): ResBlock(
        (in_layers): Sequential(
          (0): GroupNorm32(32, 1024, eps=1e-05, affine=True)
          (1): SiLU()
          (2): Conv2d(1024, 1024, kernel_size=(3, 3), stride=(1, 1), padding=(1, 1))
        )
        (h_upd): Upsample()
        (x_upd): Upsample()
        (emb_layers): Sequential(
          (0): SiLU()
          (1): Linear(in_features=1024, out_features=2048, bias=True)
        )
        (out_layers): Sequential(
          (0): GroupNorm32(32, 1024, eps=1e-05, affine=True)
          (1): SiLU()
          (2): Dropout(p=0.0, inplace=False)
          (3): Conv2d(1024, 1024, kernel_size=(3, 3), stride=(1, 1), padding=(1, 1))
        )
        (skip_connection): Identity()
      )
    )
    (3): TimestepEmbedSequential(
      (0): ResBlock(
        (in_layers): Sequential(
          (0): GroupNorm32(32, 2048, eps=1e-05, affine=True)
          (1): SiLU()
          (2): Conv2d(2048, 1024, kernel_size=(3, 3), stride=(1, 1), padding=(1, 1))
        )
        (h_upd): Identity()
        (x_upd): Identity()
        (emb_layers): Sequential(
          (0): SiLU()
          (1): Linear(in_features=1024, out_features=2048, bias=True)
        )
        (out_layers): Sequential(
          (0): GroupNorm32(32, 1024, eps=1e-05, affine=True)
          (1): SiLU()
          (2): Dropout(p=0.0, inplace=False)
          (3): Conv2d(1024, 1024, kernel_size=(3, 3), stride=(1, 1), padding=(1, 1))
        )
        (skip_connection): Conv2d(2048, 1024, kernel_size=(1, 1), stride=(1, 1))
      )
      (1): ObjectAwareCrossAttention(
        (qkv_projector): Conv1d(1024, 3072, kernel_size=(1,), stride=(1,))
        (norm_for_qkv): GroupNorm32(32, 1024, eps=1e-05, affine=True)
        (layout_content_embedding_projector): Conv1d(256, 2048, kernel_size=(1,), stride=(1,))
        (layout_position_embedding_projector): Conv1d(256, 1024, kernel_size=(1,), stride=(1,))
        (norm_for_obj_class_embedding): GroupNorm32(32, 256, eps=1e-05, affine=True)
        (norm_for_layout_positional_embedding): GroupNorm32(32, 1024, eps=1e-05, affine=True)
        (norm_for_image_patch_positional_embedding): GroupNorm32(32, 1024, eps=1e-05, affine=True)
        (proj_out): Conv1d(1024, 1024, kernel_size=(1,), stride=(1,))
      )
    )
    (4): TimestepEmbedSequential(
      (0): ResBlock(
        (in_layers): Sequential(
          (0): GroupNorm32(32, 2048, eps=1e-05, affine=True)
          (1): SiLU()
          (2): Conv2d(2048, 1024, kernel_size=(3, 3), stride=(1, 1), padding=(1, 1))
        )
        (h_upd): Identity()
        (x_upd): Identity()
        (emb_layers): Sequential(
          (0): SiLU()
          (1): Linear(in_features=1024, out_features=2048, bias=True)
        )
        (out_layers): Sequential(
          (0): GroupNorm32(32, 1024, eps=1e-05, affine=True)
          (1): SiLU()
          (2): Dropout(p=0.0, inplace=False)
          (3): Conv2d(1024, 1024, kernel_size=(3, 3), stride=(1, 1), padding=(1, 1))
        )
        (skip_connection): Conv2d(2048, 1024, kernel_size=(1, 1), stride=(1, 1))
      )
      (1): ObjectAwareCrossAttention(
        (qkv_projector): Conv1d(1024, 3072, kernel_size=(1,), stride=(1,))
        (norm_for_qkv): GroupNorm32(32, 1024, eps=1e-05, affine=True)
        (layout_content_embedding_projector): Conv1d(256, 2048, kernel_size=(1,), stride=(1,))
        (layout_position_embedding_projector): Conv1d(256, 1024, kernel_size=(1,), stride=(1,))
        (norm_for_obj_class_embedding): GroupNorm32(32, 256, eps=1e-05, affine=True)
        (norm_for_layout_positional_embedding): GroupNorm32(32, 1024, eps=1e-05, affine=True)
        (norm_for_image_patch_positional_embedding): GroupNorm32(32, 1024, eps=1e-05, affine=True)
        (proj_out): Conv1d(1024, 1024, kernel_size=(1,), stride=(1,))
      )
    )
    (5): TimestepEmbedSequential(
      (0): ResBlock(
        (in_layers): Sequential(
          (0): GroupNorm32(32, 1536, eps=1e-05, affine=True)
          (1): SiLU()
          (2): Conv2d(1536, 1024, kernel_size=(3, 3), stride=(1, 1), padding=(1, 1))
        )
        (h_upd): Identity()
        (x_upd): Identity()
        (emb_layers): Sequential(
          (0): SiLU()
          (1): Linear(in_features=1024, out_features=2048, bias=True)
        )
        (out_layers): Sequential(
          (0): GroupNorm32(32, 1024, eps=1e-05, affine=True)
          (1): SiLU()
          (2): Dropout(p=0.0, inplace=False)
          (3): Conv2d(1024, 1024, kernel_size=(3, 3), stride=(1, 1), padding=(1, 1))
        )
        (skip_connection): Conv2d(1536, 1024, kernel_size=(1, 1), stride=(1, 1))
      )
      (1): ObjectAwareCrossAttention(
        (qkv_projector): Conv1d(1024, 3072, kernel_size=(1,), stride=(1,))
        (norm_for_qkv): GroupNorm32(32, 1024, eps=1e-05, affine=True)
        (layout_content_embedding_projector): Conv1d(256, 2048, kernel_size=(1,), stride=(1,))
        (layout_position_embedding_projector): Conv1d(256, 1024, kernel_size=(1,), stride=(1,))
        (norm_for_obj_class_embedding): GroupNorm32(32, 256, eps=1e-05, affine=True)
        (norm_for_layout_positional_embedding): GroupNorm32(32, 1024, eps=1e-05, affine=True)
        (norm_for_image_patch_positional_embedding): GroupNorm32(32, 1024, eps=1e-05, affine=True)
        (proj_out): Conv1d(1024, 1024, kernel_size=(1,), stride=(1,))
      )
      (2): ResBlock(
        (in_layers): Sequential(
          (0): GroupNorm32(32, 1024, eps=1e-05, affine=True)
          (1): SiLU()
          (2): Conv2d(1024, 1024, kernel_size=(3, 3), stride=(1, 1), padding=(1, 1))
        )
        (h_upd): Upsample()
        (x_upd): Upsample()
        (emb_layers): Sequential(
          (0): SiLU()
          (1): Linear(in_features=1024, out_features=2048, bias=True)
        )
        (out_layers): Sequential(
          (0): GroupNorm32(32, 1024, eps=1e-05, affine=True)
          (1): SiLU()
          (2): Dropout(p=0.0, inplace=False)
          (3): Conv2d(1024, 1024, kernel_size=(3, 3), stride=(1, 1), padding=(1, 1))
        )
        (skip_connection): Identity()
      )
    )
    (6): TimestepEmbedSequential(
      (0): ResBlock(
        (in_layers): Sequential(
          (0): GroupNorm32(32, 1536, eps=1e-05, affine=True)
          (1): SiLU()
          (2): Conv2d(1536, 512, kernel_size=(3, 3), stride=(1, 1), padding=(1, 1))
        )
        (h_upd): Identity()
        (x_upd): Identity()
        (emb_layers): Sequential(
          (0): SiLU()
          (1): Linear(in_features=1024, out_features=1024, bias=True)
        )
        (out_layers): Sequential(
          (0): GroupNorm32(32, 512, eps=1e-05, affine=True)
          (1): SiLU()
          (2): Dropout(p=0.0, inplace=False)
          (3): Conv2d(512, 512, kernel_size=(3, 3), stride=(1, 1), padding=(1, 1))
        )
        (skip_connection): Conv2d(1536, 512, kernel_size=(1, 1), stride=(1, 1))
      )
      (1): ObjectAwareCrossAttention(
        (qkv_projector): Conv1d(512, 1536, kernel_size=(1,), stride=(1,))
        (norm_for_qkv): GroupNorm32(32, 512, eps=1e-05, affine=True)
        (layout_content_embedding_projector): Conv1d(256, 1024, kernel_size=(1,), stride=(1,))
        (layout_position_embedding_projector): Conv1d(256, 512, kernel_size=(1,), stride=(1,))
        (norm_for_obj_class_embedding): GroupNorm32(32, 256, eps=1e-05, affine=True)
        (norm_for_layout_positional_embedding): GroupNorm32(32, 512, eps=1e-05, affine=True)
        (norm_for_image_patch_positional_embedding): GroupNorm32(32, 512, eps=1e-05, affine=True)
        (proj_out): Conv1d(512, 512, kernel_size=(1,), stride=(1,))
      )
    )
    (7): TimestepEmbedSequential(
      (0): ResBlock(
        (in_layers): Sequential(
          (0): GroupNorm32(32, 1024, eps=1e-05, affine=True)
          (1): SiLU()
          (2): Conv2d(1024, 512, kernel_size=(3, 3), stride=(1, 1), padding=(1, 1))
        )
        (h_upd): Identity()
        (x_upd): Identity()
        (emb_layers): Sequential(
          (0): SiLU()
          (1): Linear(in_features=1024, out_features=1024, bias=True)
        )
        (out_layers): Sequential(
          (0): GroupNorm32(32, 512, eps=1e-05, affine=True)
          (1): SiLU()
          (2): Dropout(p=0.0, inplace=False)
          (3): Conv2d(512, 512, kernel_size=(3, 3), stride=(1, 1), padding=(1, 1))
        )
        (skip_connection): Conv2d(1024, 512, kernel_size=(1, 1), stride=(1, 1))
      )
      (1): ObjectAwareCrossAttention(
        (qkv_projector): Conv1d(512, 1536, kernel_size=(1,), stride=(1,))
        (norm_for_qkv): GroupNorm32(32, 512, eps=1e-05, affine=True)
        (layout_content_embedding_projector): Conv1d(256, 1024, kernel_size=(1,), stride=(1,))
        (layout_position_embedding_projector): Conv1d(256, 512, kernel_size=(1,), stride=(1,))
        (norm_for_obj_class_embedding): GroupNorm32(32, 256, eps=1e-05, affine=True)
        (norm_for_layout_positional_embedding): GroupNorm32(32, 512, eps=1e-05, affine=True)
        (norm_for_image_patch_positional_embedding): GroupNorm32(32, 512, eps=1e-05, affine=True)
        (proj_out): Conv1d(512, 512, kernel_size=(1,), stride=(1,))
      )
    )
    (8): TimestepEmbedSequential(
      (0): ResBlock(
        (in_layers): Sequential(
          (0): GroupNorm32(32, 1024, eps=1e-05, affine=True)
          (1): SiLU()
          (2): Conv2d(1024, 512, kernel_size=(3, 3), stride=(1, 1), padding=(1, 1))
        )
        (h_upd): Identity()
        (x_upd): Identity()
        (emb_layers): Sequential(
          (0): SiLU()
          (1): Linear(in_features=1024, out_features=1024, bias=True)
        )
        (out_layers): Sequential(
          (0): GroupNorm32(32, 512, eps=1e-05, affine=True)
          (1): SiLU()
          (2): Dropout(p=0.0, inplace=False)
          (3): Conv2d(512, 512, kernel_size=(3, 3), stride=(1, 1), padding=(1, 1))
        )
        (skip_connection): Conv2d(1024, 512, kernel_size=(1, 1), stride=(1, 1))
      )
      (1): ObjectAwareCrossAttention(
        (qkv_projector): Conv1d(512, 1536, kernel_size=(1,), stride=(1,))
        (norm_for_qkv): GroupNorm32(32, 512, eps=1e-05, affine=True)
        (layout_content_embedding_projector): Conv1d(256, 1024, kernel_size=(1,), stride=(1,))
        (layout_position_embedding_projector): Conv1d(256, 512, kernel_size=(1,), stride=(1,))
        (norm_for_obj_class_embedding): GroupNorm32(32, 256, eps=1e-05, affine=True)
        (norm_for_layout_positional_embedding): GroupNorm32(32, 512, eps=1e-05, affine=True)
        (norm_for_image_patch_positional_embedding): GroupNorm32(32, 512, eps=1e-05, affine=True)
        (proj_out): Conv1d(512, 512, kernel_size=(1,), stride=(1,))
      )
      (2): ResBlock(
        (in_layers): Sequential(
          (0): GroupNorm32(32, 512, eps=1e-05, affine=True)
          (1): SiLU()
          (2): Conv2d(512, 512, kernel_size=(3, 3), stride=(1, 1), padding=(1, 1))
        )
        (h_upd): Upsample()
        (x_upd): Upsample()
        (emb_layers): Sequential(
          (0): SiLU()
          (1): Linear(in_features=1024, out_features=1024, bias=True)
        )
        (out_layers): Sequential(
          (0): GroupNorm32(32, 512, eps=1e-05, affine=True)
          (1): SiLU()
          (2): Dropout(p=0.0, inplace=False)
          (3): Conv2d(512, 512, kernel_size=(3, 3), stride=(1, 1), padding=(1, 1))
        )
        (skip_connection): Identity()
      )
    )
    (9): TimestepEmbedSequential(
      (0): ResBlock(
        (in_layers): Sequential(
          (0): GroupNorm32(32, 1024, eps=1e-05, affine=True)
          (1): SiLU()
          (2): Conv2d(1024, 512, kernel_size=(3, 3), stride=(1, 1), padding=(1, 1))
        )
        (h_upd): Identity()
        (x_upd): Identity()
        (emb_layers): Sequential(
          (0): SiLU()
          (1): Linear(in_features=1024, out_features=1024, bias=True)
        )
        (out_layers): Sequential(
          (0): GroupNorm32(32, 512, eps=1e-05, affine=True)
          (1): SiLU()
          (2): Dropout(p=0.0, inplace=False)
          (3): Conv2d(512, 512, kernel_size=(3, 3), stride=(1, 1), padding=(1, 1))
        )
        (skip_connection): Conv2d(1024, 512, kernel_size=(1, 1), stride=(1, 1))
      )
    )
    (10): TimestepEmbedSequential(
      (0): ResBlock(
        (in_layers): Sequential(
          (0): GroupNorm32(32, 1024, eps=1e-05, affine=True)
          (1): SiLU()
          (2): Conv2d(1024, 512, kernel_size=(3, 3), stride=(1, 1), padding=(1, 1))
        )
        (h_upd): Identity()
        (x_upd): Identity()
        (emb_layers): Sequential(
          (0): SiLU()
          (1): Linear(in_features=1024, out_features=1024, bias=True)
        )
        (out_layers): Sequential(
          (0): GroupNorm32(32, 512, eps=1e-05, affine=True)
          (1): SiLU()
          (2): Dropout(p=0.0, inplace=False)
          (3): Conv2d(512, 512, kernel_size=(3, 3), stride=(1, 1), padding=(1, 1))
        )
        (skip_connection): Conv2d(1024, 512, kernel_size=(1, 1), stride=(1, 1))
      )
    )
    (11): TimestepEmbedSequential(
      (0): ResBlock(
        (in_layers): Sequential(
          (0): GroupNorm32(32, 768, eps=1e-05, affine=True)
          (1): SiLU()
          (2): Conv2d(768, 512, kernel_size=(3, 3), stride=(1, 1), padding=(1, 1))
        )
        (h_upd): Identity()
        (x_upd): Identity()
        (emb_layers): Sequential(
          (0): SiLU()
          (1): Linear(in_features=1024, out_features=1024, bias=True)
        )
        (out_layers): Sequential(
          (0): GroupNorm32(32, 512, eps=1e-05, affine=True)
          (1): SiLU()
          (2): Dropout(p=0.0, inplace=False)
          (3): Conv2d(512, 512, kernel_size=(3, 3), stride=(1, 1), padding=(1, 1))
        )
        (skip_connection): Conv2d(768, 512, kernel_size=(1, 1), stride=(1, 1))
      )
      (1): ResBlock(
        (in_layers): Sequential(
          (0): GroupNorm32(32, 512, eps=1e-05, affine=True)
          (1): SiLU()
          (2): Conv2d(512, 512, kernel_size=(3, 3), stride=(1, 1), padding=(1, 1))
        )
        (h_upd): Upsample()
        (x_upd): Upsample()
        (emb_layers): Sequential(
          (0): SiLU()
          (1): Linear(in_features=1024, out_features=1024, bias=True)
        )
        (out_layers): Sequential(
          (0): GroupNorm32(32, 512, eps=1e-05, affine=True)
          (1): SiLU()
          (2): Dropout(p=0.0, inplace=False)
          (3): Conv2d(512, 512, kernel_size=(3, 3), stride=(1, 1), padding=(1, 1))
        )
        (skip_connection): Identity()
      )
    )
    (12): TimestepEmbedSequential(
      (0): ResBlock(
        (in_layers): Sequential(
          (0): GroupNorm32(32, 768, eps=1e-05, affine=True)
          (1): SiLU()
          (2): Conv2d(768, 256, kernel_size=(3, 3), stride=(1, 1), padding=(1, 1))
        )
        (h_upd): Identity()
        (x_upd): Identity()
        (emb_layers): Sequential(
          (0): SiLU()
          (1): Linear(in_features=1024, out_features=512, bias=True)
        )
        (out_layers): Sequential(
          (0): GroupNorm32(32, 256, eps=1e-05, affine=True)
          (1): SiLU()
          (2): Dropout(p=0.0, inplace=False)
          (3): Conv2d(256, 256, kernel_size=(3, 3), stride=(1, 1), padding=(1, 1))
        )
        (skip_connection): Conv2d(768, 256, kernel_size=(1, 1), stride=(1, 1))
      )
    )
    (13): TimestepEmbedSequential(
      (0): ResBlock(
        (in_layers): Sequential(
          (0): GroupNorm32(32, 512, eps=1e-05, affine=True)
          (1): SiLU()
          (2): Conv2d(512, 256, kernel_size=(3, 3), stride=(1, 1), padding=(1, 1))
        )
        (h_upd): Identity()
        (x_upd): Identity()
        (emb_layers): Sequential(
          (0): SiLU()
          (1): Linear(in_features=1024, out_features=512, bias=True)
        )
        (out_layers): Sequential(
          (0): GroupNorm32(32, 256, eps=1e-05, affine=True)
          (1): SiLU()
          (2): Dropout(p=0.0, inplace=False)
          (3): Conv2d(256, 256, kernel_size=(3, 3), stride=(1, 1), padding=(1, 1))
        )
        (skip_connection): Conv2d(512, 256, kernel_size=(1, 1), stride=(1, 1))
      )
    )
    (14): TimestepEmbedSequential(
      (0): ResBlock(
        (in_layers): Sequential(
          (0): GroupNorm32(32, 512, eps=1e-05, affine=True)
          (1): SiLU()
          (2): Conv2d(512, 256, kernel_size=(3, 3), stride=(1, 1), padding=(1, 1))
        )
        (h_upd): Identity()
        (x_upd): Identity()
        (emb_layers): Sequential(
          (0): SiLU()
          (1): Linear(in_features=1024, out_features=512, bias=True)
        )
        (out_layers): Sequential(
          (0): GroupNorm32(32, 256, eps=1e-05, affine=True)
          (1): SiLU()
          (2): Dropout(p=0.0, inplace=False)
          (3): Conv2d(256, 256, kernel_size=(3, 3), stride=(1, 1), padding=(1, 1))
        )
        (skip_connection): Conv2d(512, 256, kernel_size=(1, 1), stride=(1, 1))
      )
      (1): ResBlock(
        (in_layers): Sequential(
          (0): GroupNorm32(32, 256, eps=1e-05, affine=True)
          (1): SiLU()
          (2): Conv2d(256, 256, kernel_size=(3, 3), stride=(1, 1), padding=(1, 1))
        )
        (h_upd): Upsample()
        (x_upd): Upsample()
        (emb_layers): Sequential(
          (0): SiLU()
          (1): Linear(in_features=1024, out_features=512, bias=True)
        )
        (out_layers): Sequential(
          (0): GroupNorm32(32, 256, eps=1e-05, affine=True)
          (1): SiLU()
          (2): Dropout(p=0.0, inplace=False)
          (3): Conv2d(256, 256, kernel_size=(3, 3), stride=(1, 1), padding=(1, 1))
        )
        (skip_connection): Identity()
      )
    )
    (15): TimestepEmbedSequential(
      (0): ResBlock(
        (in_layers): Sequential(
          (0): GroupNorm32(32, 512, eps=1e-05, affine=True)
          (1): SiLU()
          (2): Conv2d(512, 256, kernel_size=(3, 3), stride=(1, 1), padding=(1, 1))
        )
        (h_upd): Identity()
        (x_upd): Identity()
        (emb_layers): Sequential(
          (0): SiLU()
          (1): Linear(in_features=1024, out_features=512, bias=True)
        )
        (out_layers): Sequential(
          (0): GroupNorm32(32, 256, eps=1e-05, affine=True)
          (1): SiLU()
          (2): Dropout(p=0.0, inplace=False)
          (3): Conv2d(256, 256, kernel_size=(3, 3), stride=(1, 1), padding=(1, 1))
        )
        (skip_connection): Conv2d(512, 256, kernel_size=(1, 1), stride=(1, 1))
      )
    )
    (16): TimestepEmbedSequential(
      (0): ResBlock(
        (in_layers): Sequential(
          (0): GroupNorm32(32, 512, eps=1e-05, affine=True)
          (1): SiLU()
          (2): Conv2d(512, 256, kernel_size=(3, 3), stride=(1, 1), padding=(1, 1))
        )
        (h_upd): Identity()
        (x_upd): Identity()
        (emb_layers): Sequential(
          (0): SiLU()
          (1): Linear(in_features=1024, out_features=512, bias=True)
        )
        (out_layers): Sequential(
          (0): GroupNorm32(32, 256, eps=1e-05, affine=True)
          (1): SiLU()
          (2): Dropout(p=0.0, inplace=False)
          (3): Conv2d(256, 256, kernel_size=(3, 3), stride=(1, 1), padding=(1, 1))
        )
        (skip_connection): Conv2d(512, 256, kernel_size=(1, 1), stride=(1, 1))
      )
    )
    (17): TimestepEmbedSequential(
      (0): ResBlock(
        (in_layers): Sequential(
          (0): GroupNorm32(32, 512, eps=1e-05, affine=True)
          (1): SiLU()
          (2): Conv2d(512, 256, kernel_size=(3, 3), stride=(1, 1), padding=(1, 1))
        )
        (h_upd): Identity()
        (x_upd): Identity()
        (emb_layers): Sequential(
          (0): SiLU()
          (1): Linear(in_features=1024, out_features=512, bias=True)
        )
        (out_layers): Sequential(
          (0): GroupNorm32(32, 256, eps=1e-05, affine=True)
          (1): SiLU()
          (2): Dropout(p=0.0, inplace=False)
          (3): Conv2d(256, 256, kernel_size=(3, 3), stride=(1, 1), padding=(1, 1))
        )
        (skip_connection): Conv2d(512, 256, kernel_size=(1, 1), stride=(1, 1))
      )
    )
  )
  (out): Sequential(
    (0): GroupNorm32(32, 256, eps=1e-05, affine=True)
    (1): SiLU()
    (2): Conv2d(256, 6, kernel_size=(3, 3), stride=(1, 1), padding=(1, 1))
  )
)
loading model from ./pretrained_models/COCO-stuff_256x256_LayoutDiffusion_large_ema_1150000.pt
successfully load the entire model
creating diffusion...
sample method = dpm_solver
sampling...
FPS = 4 / 65.61494469642639 = 0.06096172173132767 imgs / second
batch_id=1 created 4 / 8 samples
FPS = 8 / 109.77942514419556 = 0.07287340036160674 imgs / second
…
